…
    "                                                  random_state = 403 )"
   ]
  },
  {
   "cell_type": "code",
   "execution_count": 18,
   "metadata": {},
   "outputs": [
    {
     "name": "stdout",
     "output_type": "stream",
     "text": [
      "Model: \"model_3\"\n",
      "__________________________________________________________________________________________________\n",
      "Layer (type)                    Output Shape         Param #     Connected to                     \n",
      "==================================================================================================\n",
      "input_7 (InputLayer)            (None, 300, 300, 3)  0                                            \n",
      "__________________________________________________________________________________________________\n",
      "conv1_pad (ZeroPadding2D)       (None, 306, 306, 3)  0           input_7[0][0]                    \n",
      "__________________________________________________________________________________________________\n",
      "conv1 (Conv2D)                  (None, 150, 150, 64) 9472        conv1_pad[0][0]                  \n",
      "__________________________________________________________________________________________________\n",
      "bn_conv1 (BatchNormalization)   (None, 150, 150, 64) 256         conv1[0][0]                      \n",
      "__________________________________________________________________________________________________\n",
      "activation_246 (Activation)     (None, 150, 150, 64) 0           bn_conv1[0][0]                   \n",
      "__________________________________________________________________________________________________\n",
      "pool1_pad (ZeroPadding2D)       (None, 152, 152, 64) 0           activation_246[0][0]             \n",
      "__________________________________________________________________________________________________\n",
      "max_pooling2d_6 (MaxPooling2D)  (None, 75, 75, 64)   0           pool1_pad[0][0]                  \n",
      "__________________________________________________________________________________________________\n",
      "res2a_branch2a (Conv2D)         (None, 75, 75, 64)   4160        max_pooling2d_6[0][0]            \n",
      "__________________________________________________________________________________________________\n",
      "bn2a_branch2a (BatchNormalizati (None, 75, 75, 64)   256         res2a_branch2a[0][0]             \n",
      "__________________________________________________________________________________________________\n",
      "activation_247 (Activation)     (None, 75, 75, 64)   0           bn2a_branch2a[0][0]              \n",
      "__________________________________________________________________________________________________\n",
      "res2a_branch2b (Conv2D)         (None, 75, 75, 64)   36928       activation_247[0][0]             \n",
      "__________________________________________________________________________________________________\n",
      "bn2a_branch2b (BatchNormalizati (None, 75, 75, 64)   256         res2a_branch2b[0][0]             \n",
      "__________________________________________________________________________________________________\n",
      "activation_248 (Activation)     (None, 75, 75, 64)   0           bn2a_branch2b[0][0]              \n",
      "__________________________________________________________________________________________________\n",
      "res2a_branch2c (Conv2D)         (None, 75, 75, 256)  16640       activation_248[0][0]             \n",
      "__________________________________________________________________________________________________\n",
      "res2a_branch1 (Conv2D)          (None, 75, 75, 256)  16640       max_pooling2d_6[0][0]            \n",
      "__________________________________________________________________________________________________\n",
      "bn2a_branch2c (BatchNormalizati (None, 75, 75, 256)  1024        res2a_branch2c[0][0]             \n",
      "__________________________________________________________________________________________________\n",
      "bn2a_branch1 (BatchNormalizatio (None, 75, 75, 256)  1024        res2a_branch1[0][0]              \n",
      "__________________________________________________________________________________________________\n",
      "add_81 (Add)                    (None, 75, 75, 256)  0           bn2a_branch2c[0][0]              \n",
      "                                                                 bn2a_branch1[0][0]               \n",
      "__________________________________________________________________________________________________\n",
      "activation_249 (Activation)     (None, 75, 75, 256)  0           add_81[0][0]                     \n",
      "__________________________________________________________________________________________________\n",
      "res2b_branch2a (Conv2D)         (None, 75, 75, 64)   16448       activation_249[0][0]             \n",
      "__________________________________________________________________________________________________\n",
      "bn2b_branch2a (BatchNormalizati (None, 75, 75, 64)   256         res2b_branch2a[0][0]             \n",
      "__________________________________________________________________________________________________\n",
      "activation_250 (Activation)     (None, 75, 75, 64)   0           bn2b_branch2a[0][0]              \n",
      "__________________________________________________________________________________________________\n",
      "res2b_branch2b (Conv2D)         (None, 75, 75, 64)   36928       activation_250[0][0]             \n",
      "__________________________________________________________________________________________________\n",
      "bn2b_branch2b (BatchNormalizati (None, 75, 75, 64)   256         res2b_branch2b[0][0]             \n",
      "__________________________________________________________________________________________________\n",
      "activation_251 (Activation)     (None, 75, 75, 64)   0           bn2b_branch2b[0][0]              \n",
      "__________________________________________________________________________________________________\n",
      "res2b_branch2c (Conv2D)         (None, 75, 75, 256)  16640       activation_251[0][0]             \n",
      "__________________________________________________________________________________________________\n",
      "bn2b_branch2c (BatchNormalizati (None, 75, 75, 256)  1024        res2b_branch2c[0][0]             \n",
      "__________________________________________________________________________________________________\n",
      "add_82 (Add)                    (None, 75, 75, 256)  0           bn2b_branch2c[0][0]              \n",
      "                                                                 activation_249[0][0]             \n",
      "__________________________________________________________________________________________________\n",
      "activation_252 (Activation)     (None, 75, 75, 256)  0           add_82[0][0]                     \n",
      "__________________________________________________________________________________________________\n",
      "res2c_branch2a (Conv2D)         (None, 75, 75, 64)   16448       activation_252[0][0]             \n",
      "__________________________________________________________________________________________________\n",
      "bn2c_branch2a (BatchNormalizati (None, 75, 75, 64)   256         res2c_branch2a[0][0]             \n",
      "__________________________________________________________________________________________________\n",
      "activation_253 (Activation)     (None, 75, 75, 64)   0           bn2c_branch2a[0][0]              \n",
      "__________________________________________________________________________________________________\n",
      "res2c_branch2b (Conv2D)         (None, 75, 75, 64)   36928       activation_253[0][0]             \n",
      "__________________________________________________________________________________________________\n",
      "bn2c_branch2b (BatchNormalizati (None, 75, 75, 64)   256         res2c_branch2b[0][0]             \n",
      "__________________________________________________________________________________________________\n",
      "activation_254 (Activation)     (None, 75, 75, 64)   0           bn2c_branch2b[0][0]              \n",
      "__________________________________________________________________________________________________\n",
      "res2c_branch2c (Conv2D)         (None, 75, 75, 256)  16640       activation_254[0][0]             \n",
      "__________________________________________________________________________________________________\n",
      "bn2c_branch2c (BatchNormalizati (None, 75, 75, 256)  1024        res2c_branch2c[0][0]             \n",
      "__________________________________________________________________________________________________\n",
      "add_83 (Add)                    (None, 75, 75, 256)  0           bn2c_branch2c[0][0]              \n",
      "                                                                 activation_252[0][0]             \n",
      "__________________________________________________________________________________________________\n",
      "activation_255 (Activation)     (None, 75, 75, 256)  0           add_83[0][0]                     \n",
      "__________________________________________________________________________________________________\n",
      "res3a_branch2a (Conv2D)         (None, 38, 38, 128)  32896       activation_255[0][0]             \n",
      "__________________________________________________________________________________________________\n",
      "bn3a_branch2a (BatchNormalizati (None, 38, 38, 128)  512         res3a_branch2a[0][0]             \n",
      "__________________________________________________________________________________________________\n",
      "activation_256 (Activation)     (None, 38, 38, 128)  0           bn3a_branch2a[0][0]              \n",
      "__________________________________________________________________________________________________\n",
      "res3a_branch2b (Conv2D)         (None, 38, 38, 128)  147584      activation_256[0][0]             \n",
      "__________________________________________________________________________________________________\n",
      "bn3a_branch2b (BatchNormalizati (None, 38, 38, 128)  512         res3a_branch2b[0][0]             \n",
      "__________________________________________________________________________________________________\n",
      "activation_257 (Activation)     (None, 38, 38, 128)  0           bn3a_branch2b[0][0]              \n",
      "__________________________________________________________________________________________________\n",
      "res3a_branch2c (Conv2D)         (None, 38, 38, 512)  66048       activation_257[0][0]             \n",
      "__________________________________________________________________________________________________\n",
      "res3a_branch1 (Conv2D)          (None, 38, 38, 512)  131584      activation_255[0][0]             \n",
      "__________________________________________________________________________________________________\n",
      "bn3a_branch2c (BatchNormalizati (None, 38, 38, 512)  2048        res3a_branch2c[0][0]             \n",
      "__________________________________________________________________________________________________\n",
      "bn3a_branch1 (BatchNormalizatio (None, 38, 38, 512)  2048        res3a_branch1[0][0]              \n",
      "__________________________________________________________________________________________________\n",
      "add_84 (Add)                    (None, 38, 38, 512)  0           bn3a_branch2c[0][0]              \n",
      "                                                                 bn3a_branch1[0][0]               \n",
      "__________________________________________________________________________________________________\n",
      "activation_258 (Activation)     (None, 38, 38, 512)  0           add_84[0][0]                     \n",
      "__________________________________________________________________________________________________\n",
      "res3b_branch2a (Conv2D)         (None, 38, 38, 128)  65664       activation_258[0][0]             \n",
      "__________________________________________________________________________________________________\n",
      "bn3b_branch2a (BatchNormalizati (None, 38, 38, 128)  512         res3b_branch2a[0][0]             \n",
      "__________________________________________________________________________________________________\n",
      "activation_259 (Activation)     (None, 38, 38, 128)  0           bn3b_branch2a[0][0]              \n",
      "__________________________________________________________________________________________________\n",
      "res3b_branch2b (Conv2D)         (None, 38, 38, 128)  147584      activation_259[0][0]             \n",
      "__________________________________________________________________________________________________\n",
      "bn3b_branch2b (BatchNormalizati (None, 38, 38, 128)  512         res3b_branch2b[0][0]             \n",
      "__________________________________________________________________________________________________\n",
      "activation_260 (Activation)     (None, 38, 38, 128)  0           bn3b_branch2b[0][0]              \n",
      "__________________________________________________________________________________________________\n",
      "res3b_branch2c (Conv2D)         (None, 38, 38, 512)  66048       activation_260[0][0]             \n",
      "__________________________________________________________________________________________________\n",
      "bn3b_branch2c (BatchNormalizati (None, 38, 38, 512)  2048        res3b_branch2c[0][0]             \n",
      "__________________________________________________________________________________________________\n",
      "add_85 (Add)                    (None, 38, 38, 512)  0           bn3b_branch2c[0][0]              \n",
      "                                                                 activation_258[0][0]             \n",
      "__________________________________________________________________________________________________\n",
      "activation_261 (Activation)     (None, 38, 38, 512)  0           add_85[0][0]                     \n",
      "__________________________________________________________________________________________________\n",
      "res3c_branch2a (Conv2D)         (None, 38, 38, 128)  65664       activation_261[0][0]             \n",
      "__________________________________________________________________________________________________\n",
      "bn3c_branch2a (BatchNormalizati (None, 38, 38, 128)  512         res3c_branch2a[0][0]             \n",
      "__________________________________________________________________________________________________\n",
      "activation_262 (Activation)     (None, 38, 38, 128)  0           bn3c_branch2a[0][0]              \n",
      "__________________________________________________________________________________________________\n",
      "res3c_branch2b (Conv2D)         (None, 38, 38, 128)  147584      activation_262[0][0]             \n",
      "__________________________________________________________________________________________________\n",
      "bn3c_branch2b (BatchNormalizati (None, 38, 38, 128)  512         res3c_branch2b[0][0]             \n",
      "__________________________________________________________________________________________________\n",
      "activation_263 (Activation)     (None, 38, 38, 128)  0           bn3c_branch2b[0][0]              \n",
      "__________________________________________________________________________________________________\n",
      "res3c_branch2c (Conv2D)         (None, 38, 38, 512)  66048       activation_263[0][0]             \n",
      "__________________________________________________________________________________________________\n",
      "bn3c_branch2c (BatchNormalizati (None, 38, 38, 512)  2048        res3c_branch2c[0][0]             \n",
      "__________________________________________________________________________________________________\n",
      "add_86 (Add)                    (None, 38, 38, 512)  0           bn3c_branch2c[0][0]              \n",
      "                                                                 activation_261[0][0]             \n",
      "__________________________________________________________________________________________________\n",
      "activation_264 (Activation)     (None, 38, 38, 512)  0           add_86[0][0]                     \n",
      "__________________________________________________________________________________________________\n",
      "res3d_branch2a (Conv2D)         (None, 38, 38, 128)  65664       activation_264[0][0]             \n",
      "__________________________________________________________________________________________________\n",
      "bn3d_branch2a (BatchNormalizati (None, 38, 38, 128)  512         res3d_branch2a[0][0]             \n",
      "__________________________________________________________________________________________________\n",
      "activation_265 (Activation)     (None, 38, 38, 128)  0           bn3d_branch2a[0][0]              \n",
      "__________________________________________________________________________________________________\n",
      "res3d_branch2b (Conv2D)         (None, 38, 38, 128)  147584      activation_265[0][0]             \n",
      "__________________________________________________________________________________________________\n",
      "bn3d_branch2b (BatchNormalizati (None, 38, 38, 128)  512         res3d_branch2b[0][0]             \n",
      "__________________________________________________________________________________________________\n",
      "activation_266 (Activation)     (None, 38, 38, 128)  0           bn3d_branch2b[0][0]              \n",
      "__________________________________________________________________________________________________\n",
      "res3d_branch2c (Conv2D)         (None, 38, 38, 512)  66048       activation_266[0][0]             \n",
      "__________________________________________________________________________________________________\n",
      "bn3d_branch2c (BatchNormalizati (None, 38, 38, 512)  2048        res3d_branch2c[0][0]             \n",
      "__________________________________________________________________________________________________\n",
      "add_87 (Add)                    (None, 38, 38, 512)  0           bn3d_branch2c[0][0]              \n",
      "                                                                 activation_264[0][0]             \n",
      "__________________________________________________________________________________________________\n",
      "activation_267 (Activation)     (None, 38, 38, 512)  0           add_87[0][0]                     \n",
      "__________________________________________________________________________________________________\n",
      "res4a_branch2a (Conv2D)         (None, 19, 19, 256)  131328      activation_267[0][0]             \n",
      "__________________________________________________________________________________________________\n",
      "bn4a_branch2a (BatchNormalizati (None, 19, 19, 256)  1024        res4a_branch2a[0][0]             \n",
      "__________________________________________________________________________________________________\n",
      "activation_268 (Activation)     (None, 19, 19, 256)  0           bn4a_branch2a[0][0]              \n",
      "__________________________________________________________________________________________________\n",
      "res4a_branch2b (Conv2D)         (None, 19, 19, 256)  590080      activation_268[0][0]             \n",
      "__________________________________________________________________________________________________\n",
      "bn4a_branch2b (BatchNormalizati (None, 19, 19, 256)  1024        res4a_branch2b[0][0]             \n",
      "__________________________________________________________________________________________________\n",
      "activation_269 (Activation)     (None, 19, 19, 256)  0           bn4a_branch2b[0][0]              \n",
      "__________________________________________________________________________________________________\n",
      "res4a_branch2c (Conv2D)         (None, 19, 19, 1024) 263168      activation_269[0][0]             \n",
      "__________________________________________________________________________________________________\n",
      "res4a_branch1 (Conv2D)          (None, 19, 19, 1024) 525312      activation_267[0][0]             \n",
      "__________________________________________________________________________________________________\n",
      "bn4a_branch2c (BatchNormalizati (None, 19, 19, 1024) 4096        res4a_branch2c[0][0]             \n",
      "__________________________________________________________________________________________________\n",
      "bn4a_branch1 (BatchNormalizatio (None, 19, 19, 1024) 4096        res4a_branch1[0][0]              \n",
      "__________________________________________________________________________________________________\n",
      "add_88 (Add)                    (None, 19, 19, 1024) 0           bn4a_branch2c[0][0]              \n",
      "                                                                 bn4a_branch1[0][0]               \n",
      "__________________________________________________________________________________________________\n",
      "activation_270 (Activation)     (None, 19, 19, 1024) 0           add_88[0][0]                     \n",
      "__________________________________________________________________________________________________\n",
      "res4b_branch2a (Conv2D)         (None, 19, 19, 256)  262400      activation_270[0][0]             \n",
      "__________________________________________________________________________________________________\n",
      "bn4b_branch2a (BatchNormalizati (None, 19, 19, 256)  1024        res4b_branch2a[0][0]             \n",
      "__________________________________________________________________________________________________\n",
      "activation_271 (Activation)     (None, 19, 19, 256)  0           bn4b_branch2a[0][0]              \n",
      "__________________________________________________________________________________________________\n",
      "res4b_branch2b (Conv2D)         (None, 19, 19, 256)  590080      activation_271[0][0]             \n",
      "__________________________________________________________________________________________________\n",
      "bn4b_branch2b (BatchNormalizati (None, 19, 19, 256)  1024        res4b_branch2b[0][0]             \n",
      "__________________________________________________________________________________________________\n",
      "activation_272 (Activation)     (None, 19, 19, 256)  0           bn4b_branch2b[0][0]              \n",
      "__________________________________________________________________________________________________\n",
      "res4b_branch2c (Conv2D)         (None, 19, 19, 1024) 263168      activation_272[0][0]             \n",
      "__________________________________________________________________________________________________\n",
      "bn4b_branch2c (BatchNormalizati (None, 19, 19, 1024) 4096        res4b_branch2c[0][0]             \n",
      "__________________________________________________________________________________________________\n",
      "add_89 (Add)                    (None, 19, 19, 1024) 0           bn4b_branch2c[0][0]              \n",
      "                                                                 activation_270[0][0]             \n",
      "__________________________________________________________________________________________________\n",
      "activation_273 (Activation)     (None, 19, 19, 1024) 0           add_89[0][0]                     \n",
      "__________________________________________________________________________________________________\n",
      "res4c_branch2a (Conv2D)         (None, 19, 19, 256)  262400      activation_273[0][0]             \n",
      "__________________________________________________________________________________________________\n",
      "bn4c_branch2a (BatchNormalizati (None, 19, 19, 256)  1024        res4c_branch2a[0][0]             \n",
      "__________________________________________________________________________________________________\n",
      "activation_274 (Activation)     (None, 19, 19, 256)  0           bn4c_branch2a[0][0]              \n",
      "__________________________________________________________________________________________________\n",
      "res4c_branch2b (Conv2D)         (None, 19, 19, 256)  590080      activation_274[0][0]             \n",
      "__________________________________________________________________________________________________\n",
      "bn4c_branch2b (BatchNormalizati (None, 19, 19, 256)  1024        res4c_branch2b[0][0]             \n",
      "__________________________________________________________________________________________________\n",
      "activation_275 (Activation)     (None, 19, 19, 256)  0           bn4c_branch2b[0][0]              \n",
      "__________________________________________________________________________________________________\n",
      "res4c_branch2c (Conv2D)         (None, 19, 19, 1024) 263168      activation_275[0][0]             \n",
      "__________________________________________________________________________________________________\n",
      "bn4c_branch2c (BatchNormalizati (None, 19, 19, 1024) 4096        res4c_branch2c[0][0]             \n",
      "__________________________________________________________________________________________________\n",
      "add_90 (Add)                    (None, 19, 19, 1024) 0           bn4c_branch2c[0][0]              \n",
      "                                                                 activation_273[0][0]             \n",
      "__________________________________________________________________________________________________\n",
      "activation_276 (Activation)     (None, 19, 19, 1024) 0           add_90[0][0]                     \n",
      "__________________________________________________________________________________________________\n",
      "res4d_branch2a (Conv2D)         (None, 19, 19, 256)  262400      activation_276[0][0]             \n",
      "__________________________________________________________________________________________________\n",
      "bn4d_branch2a (BatchNormalizati (None, 19, 19, 256)  1024        res4d_branch2a[0][0]             \n",
      "__________________________________________________________________________________________________\n",
      "activation_277 (Activation)     (None, 19, 19, 256)  0           bn4d_branch2a[0][0]              \n",
      "__________________________________________________________________________________________________\n",
      "res4d_branch2b (Conv2D)         (None, 19, 19, 256)  590080      activation_277[0][0]             \n",
      "__________________________________________________________________________________________________\n",
      "bn4d_branch2b (BatchNormalizati (None, 19, 19, 256)  1024        res4d_branch2b[0][0]             \n",
      "__________________________________________________________________________________________________\n",
      "activation_278 (Activation)     (None, 19, 19, 256)  0           bn4d_branch2b[0][0]              \n",
      "__________________________________________________________________________________________________\n",
      "res4d_branch2c (Conv2D)         (None, 19, 19, 1024) 263168      activation_278[0][0]             \n",
      "__________________________________________________________________________________________________\n",
      "bn4d_branch2c (BatchNormalizati (None, 19, 19, 1024) 4096        res4d_branch2c[0][0]             \n",
      "__________________________________________________________________________________________________\n",
      "add_91 (Add)                    (None, 19, 19, 1024) 0           bn4d_branch2c[0][0]              \n",
      "                                                                 activation_276[0][0]             \n",
      "__________________________________________________________________________________________________\n",
      "activation_279 (Activation)     (None, 19, 19, 1024) 0           add_91[0][0]                     \n",
      "__________________________________________________________________________________________________\n",
      "res4e_branch2a (Conv2D)         (None, 19, 19, 256)  262400      activation_279[0][0]             \n",
      "__________________________________________________________________________________________________\n",
      "bn4e_branch2a (BatchNormalizati (None, 19, 19, 256)  1024        res4e_branch2a[0][0]             \n",
      "__________________________________________________________________________________________________\n",
      "activation_280 (Activation)     (None, 19, 19, 256)  0           bn4e_branch2a[0][0]              \n",
      "__________________________________________________________________________________________________\n",
      "res4e_branch2b (Conv2D)         (None, 19, 19, 256)  590080      activation_280[0][0]             \n",
      "__________________________________________________________________________________________________\n",
      "bn4e_branch2b (BatchNormalizati (None, 19, 19, 256)  1024        res4e_branch2b[0][0]             \n",
      "__________________________________________________________________________________________________\n",
      "activation_281 (Activation)     (None, 19, 19, 256)  0           bn4e_branch2b[0][0]              \n",
      "__________________________________________________________________________________________________\n",
      "res4e_branch2c (Conv2D)         (None, 19, 19, 1024) 263168      activation_281[0][0]             \n",
      "__________________________________________________________________________________________________\n",
      "bn4e_branch2c (BatchNormalizati (None, 19, 19, 1024) 4096        res4e_branch2c[0][0]             \n",
      "__________________________________________________________________________________________________\n",
      "add_92 (Add)                    (None, 19, 19, 1024) 0           bn4e_branch2c[0][0]              \n",
      "                                                                 activation_279[0][0]             \n",
      "__________________________________________________________________________________________________\n",
      "activation_282 (Activation)     (None, 19, 19, 1024) 0           add_92[0][0]                     \n",
      "__________________________________________________________________________________________________\n",
      "res4f_branch2a (Conv2D)         (None, 19, 19, 256)  262400      activation_282[0][0]             \n",
      "__________________________________________________________________________________________________\n",
      "bn4f_branch2a (BatchNormalizati (None, 19, 19, 256)  1024        res4f_branch2a[0][0]             \n",
      "__________________________________________________________________________________________________\n",
      "activation_283 (Activation)     (None, 19, 19, 256)  0           bn4f_branch2a[0][0]              \n",
      "__________________________________________________________________________________________________\n",
      "res4f_branch2b (Conv2D)         (None, 19, 19, 256)  590080      activation_283[0][0]             \n",
      "__________________________________________________________________________________________________\n",
      "bn4f_branch2b (BatchNormalizati (None, 19, 19, 256)  1024        res4f_branch2b[0][0]             \n",
      "__________________________________________________________________________________________________\n",
      "activation_284 (Activation)     (None, 19, 19, 256)  0           bn4f_branch2b[0][0]              \n",
      "__________________________________________________________________________________________________\n",
      "res4f_branch2c (Conv2D)         (None, 19, 19, 1024) 263168      activation_284[0][0]             \n",
      "__________________________________________________________________________________________________\n",
      "bn4f_branch2c (BatchNormalizati (None, 19, 19, 1024) 4096        res4f_branch2c[0][0]             \n",
      "__________________________________________________________________________________________________\n",
      "add_93 (Add)                    (None, 19, 19, 1024) 0           bn4f_branch2c[0][0]              \n",
      "                                                                 activation_282[0][0]             \n",
      "__________________________________________________________________________________________________\n",
      "activation_285 (Activation)     (None, 19, 19, 1024) 0           add_93[0][0]                     \n",
      "__________________________________________________________________________________________________\n",
      "res5a_branch2a (Conv2D)         (None, 10, 10, 512)  524800      activation_285[0][0]             \n",
      "__________________________________________________________________________________________________\n",
      "bn5a_branch2a (BatchNormalizati (None, 10, 10, 512)  2048        res5a_branch2a[0][0]             \n",
      "__________________________________________________________________________________________________\n",
      "activation_286 (Activation)     (None, 10, 10, 512)  0           bn5a_branch2a[0][0]              \n",
      "__________________________________________________________________________________________________\n",
      "res5a_branch2b (Conv2D)         (None, 10, 10, 512)  2359808     activation_286[0][0]             \n",
      "__________________________________________________________________________________________________\n",
      "bn5a_branch2b (BatchNormalizati (None, 10, 10, 512)  2048        res5a_branch2b[0][0]             \n",
      "__________________________________________________________________________________________________\n",
      "activation_287 (Activation)     (None, 10, 10, 512)  0           bn5a_branch2b[0][0]              \n",
      "__________________________________________________________________________________________________\n",
      "res5a_branch2c (Conv2D)         (None, 10, 10, 2048) 1050624     activation_287[0][0]             \n",
      "__________________________________________________________________________________________________\n",
      "res5a_branch1 (Conv2D)          (None, 10, 10, 2048) 2099200     activation_285[0][0]             \n",
      "__________________________________________________________________________________________________\n",
      "bn5a_branch2c (BatchNormalizati (None, 10, 10, 2048) 8192        res5a_branch2c[0][0]             \n",
      "__________________________________________________________________________________________________\n",
      "bn5a_branch1 (BatchNormalizatio (None, 10, 10, 2048) 8192        res5a_branch1[0][0]              \n",
      "__________________________________________________________________________________________________\n",
      "add_94 (Add)                    (None, 10, 10, 2048) 0           bn5a_branch2c[0][0]              \n",
      "                                                                 bn5a_branch1[0][0]               \n",
      "__________________________________________________________________________________________________\n",
      "activation_288 (Activation)     (None, 10, 10, 2048) 0           add_94[0][0]                     \n",
      "__________________________________________________________________________________________________\n",
      "res5b_branch2a (Conv2D)         (None, 10, 10, 512)  1049088     activation_288[0][0]             \n",
      "__________________________________________________________________________________________________\n",
      "bn5b_branch2a (BatchNormalizati (None, 10, 10, 512)  2048        res5b_branch2a[0][0]             \n",
      "__________________________________________________________________________________________________\n",
      "activation_289 (Activation)     (None, 10, 10, 512)  0           bn5b_branch2a[0][0]              \n",
      "__________________________________________________________________________________________________\n",
      "res5b_branch2b (Conv2D)         (None, 10, 10, 512)  2359808     activation_289[0][0]             \n",
      "__________________________________________________________________________________________________\n",
      "bn5b_branch2b (BatchNormalizati (None, 10, 10, 512)  2048        res5b_branch2b[0][0]             \n",
      "__________________________________________________________________________________________________\n",
      "activation_290 (Activation)     (None, 10, 10, 512)  0           bn5b_branch2b[0][0]              \n",
      "__________________________________________________________________________________________________\n",
      "res5b_branch2c (Conv2D)         (None, 10, 10, 2048) 1050624     activation_290[0][0]             \n",
      "__________________________________________________________________________________________________\n",
      "bn5b_branch2c (BatchNormalizati (None, 10, 10, 2048) 8192        res5b_branch2c[0][0]             \n",
      "__________________________________________________________________________________________________\n",
      "add_95 (Add)                    (None, 10, 10, 2048) 0           bn5b_branch2c[0][0]              \n",
      "                                                                 activation_288[0][0]             \n",
      "__________________________________________________________________________________________________\n",
      "activation_291 (Activation)     (None, 10, 10, 2048) 0           add_95[0][0]                     \n",
      "__________________________________________________________________________________________________\n",
      "res5c_branch2a (Conv2D)         (None, 10, 10, 512)  1049088     activation_291[0][0]             \n",
      "__________________________________________________________________________________________________\n",
      "bn5c_branch2a (BatchNormalizati (None, 10, 10, 512)  2048        res5c_branch2a[0][0]             \n",
      "__________________________________________________________________________________________________\n",
      "activation_292 (Activation)     (None, 10, 10, 512)  0           bn5c_branch2a[0][0]              \n",
      "__________________________________________________________________________________________________\n",
      "res5c_branch2b (Conv2D)         (None, 10, 10, 512)  2359808     activation_292[0][0]             \n",
      "__________________________________________________________________________________________________\n",
      "bn5c_branch2b (BatchNormalizati (None, 10, 10, 512)  2048        res5c_branch2b[0][0]             \n",
      "__________________________________________________________________________________________________\n",
      "activation_293 (Activation)     (None, 10, 10, 512)  0           bn5c_branch2b[0][0]              \n",
      "__________________________________________________________________________________________________\n",
      "res5c_branch2c (Conv2D)         (None, 10, 10, 2048) 1050624     activation_293[0][0]             \n",
      "__________________________________________________________________________________________________\n",
      "bn5c_branch2c (BatchNormalizati (None, 10, 10, 2048) 8192        res5c_branch2c[0][0]             \n",
      "__________________________________________________________________________________________________\n",
      "add_96 (Add)                    (None, 10, 10, 2048) 0           bn5c_branch2c[0][0]              \n",
      "                                                                 activation_291[0][0]             \n",
      "__________________________________________________________________________________________________\n",
      "activation_294 (Activation)     (None, 10, 10, 2048) 0           add_96[0][0]                     \n",
      "__________________________________________________________________________________________________\n",
      "flatten_5 (Flatten)             (None, 204800)       0           activation_294[0][0]             \n",
      "==================================================================================================\n",
      "Total params: 23,587,712\n",
      "Trainable params: 0\n",
      "Non-trainable params: 23,587,712\n",
      "__________________________________________________________________________________________________\n"
     ]
    }
   ],
   "source": [
…
    "resNet = Model(resNet.input, outputs = output)\n",
    "\n",
    "\n",
    "for layer in resNet.layers:\n",
    "    layer.trainable = False\n",
    "resNet.summary()"
   ]
  },
  {
   "cell_type": "code",
   "execution_count": 21,
   "metadata": {},
   "outputs": [
    {
     "name": "stdout",
     "output_type": "stream",
     "text": [
      "Model: \"sequential_3\"\n",
      "_________________________________________________________________\n",
      "Layer (type)                 Output Shape              Param #   \n",
      "=================================================================\n",
      "model_3 (Model)              (None, 204800)            23587712  \n",
      "_________________________________________________________________\n",
      "dense_4 (Dense)              (None, 512)               104858112 \n",
      "_________________________________________________________________\n",
      "dropout_3 (Dropout)          (None, 512)               0         \n",
      "_________________________________________________________________\n",
      "dense_5 (Dense)              (None, 512)               262656    \n",
      "_________________________________________________________________\n",
      "dropout_4 (Dropout)          (None, 512)               0         \n",
      "_________________________________________________________________\n",
      "dense_6 (Dense)              (None, 4)                 2052      \n",
      "=================================================================\n",
      "Total params: 128,710,532\n",
      "Trainable params: 105,122,820\n",
      "Non-trainable params: 23,587,712\n",
      "_________________________________________________________________\n"
     ]
    }
   ],
   "source": [
    "#Now that the model is imported, and all but the last layer is frozen,\n",
    "#create the additional layers that will be trained specifically on the plant data.\n",
…
